checkpoint_D.pth (torch_old, 674730 bytes, 12 tensors)

conv1.0.weight f4 [32, 3, 4, 4]
0	0x399c6e2d	0.00029836726
1	0xbc953ccc	-0.018217467
2	0xbd4f9f76	-0.050689183
3	0x3d02c1a8	0.031922966
4	0x3b56e663	0.003279113
5	0x3d521f9d	0.05129968
6	0xbc2f8649	-0.010713168
7	0x3a9220b5	0.0011148663
8	0xbc9b5c45	-0.018964896
9	0xbdbd7fa4	-0.09252861
10	0x3c9ff012	0.019523654
11	0xbc8478cc	-0.016170882
12	0x3cfefabd	0.03112542
13	0xbd3aa6d3	-0.045569252
14	0x3d9b3f32	0.07580413
15	0xbd17d57a	-0.03706882
16	0x3c6158a5	0.013754045
17	0x3c4dbadf	0.012556761
18	0xbc3829df	-0.011240452
19	0xbc7d05bf	-0.0154432645
20	0xbb0a5201	-0.0021106007
21	0x3c5decce	0.013545228
22	0xbcd658ea	-0.026165444
23	0xbcd16eba	-0.025565494
24	0xbca2c1df	-0.019867836
25	0x3ccf0cd0	0.025274664
26	0x3d131386	0.03590729
27	0xbc028ce4	-0.007968161
28	0xbc43c6c4	-0.011949245
29	0xb924eb44	-0.00015727902
30	0x3cc086c5	0.023501763
31	0xbc8dcf4c	-0.01731076
32	0x3ca3a652	0.019976769
33	0xbc1f2096	-0.009712359
34	0xbbe1eb87	-0.006894532
35	0x3995a222	0.00028540293
36	0xbb680e32	-0.0035408852
37	0xbd164ae2	-0.036692508
38	0xbb927535	-0.0044695386
39	0xbbd9122a	-0.00662448
40	0x3ce216f3	0.027598834
41	0x3d4889a4	0.04895939
42	0xbc5a6f35	-0.013332178
43	0x3a72d137	0.0009262743
44	0x3ab8f8be	0.0014112217
45	0x3d148d37	0.036267485
46	0xbdbfa314	-0.093572766
47	0x3c42acb1	0.011881993
48	0xbb4ac887	-0.0030942278
49	0x3c9c47d9	0.019077228
50	0xbd2e54c5	-0.04256131
51	0x3cc1c86e	0.023655143
52	0x3a4d496f	0.0007831072
53	0xbbb606b5	-0.0055549988
54	0xbd09e1f5	-0.033662755
55	0xbdb71891	-0.089402325
56	0xbc910ae6	-0.017705392
57	0x3d86ec2f	0.06588017
58	0x3e1182b7	0.1421002
59	0x3d0714a7	0.03297868
60	0x3b94acc6	0.0045371978
61	0xbd78fc5b	-0.06078754
62	0xbd89ad16	-0.06722467
63	0x3c90c4c0	0.017671943
64	0x3c873f16	0.016509574
65	0xbd396075	-0.045258004
66	0x3b316f3b	0.0027074355
67	0x3d26e741	0.040747885
68	0x3d07b5fa	0.03313253
69	0x3ac3bfff	0.0014934539
70	0xbd18f604	-0.037343994
71	0xbdb0288c	-0.08601484
72	0xbd2cd9ab	-0.04219977
73	0x3d6d8993	0.05799253
74	0x3dee2133	0.11627426
75	0x3da0209d	0.078187205
76	0x3bb42cf5	0.0054985234
77	0xbd4481f5	-0.0479755
78	0xbd60936d	-0.054828096
79	0xbcca29f3	-0.024678206
80	0xbc86cd8f	-0.01645544
81	0xbb3b8d9e	-0.0028618346
82	0xbd0834b4	-0.033253387
83	0x3d138a87	0.03602078
84	0x3cc19fab	0.023635706
85	0x3ca4d0d4	0.020119108
86	0xbccaad9c	-0.024740987
87	0xbd80d4f6	-0.06290619
88	0xbc983a4b	-0.018582484
89	0x3d893666	0.06699829
90	0x3d60ba31	0.054865066
91	0x3d2be8ac	0.04196994
92	0x3c871bc1	0.016492726
93	0xbda1104a	-0.07864435
94	0xbbf4201a	-0.007450116
95	0xbc0c68dc	-0.008569922
96	0x3cd47d94	0.025938787
97	0xbc7b40ed	-0.015335304
98	0x3c956ca9	0.01824029
99	0xba85bf6b	-0.0010204142
100	0xb989b826	-0.00026267878
101	0xbd88e0b1	-0.066834815
102	0x3c841f9c	0.016128354
103	0xbb56b927	-0.0032764168
104	0x3cae99ab	0.021313509
105	0xbddb5627	-0.10709792
106	0xbd17c3d0	-0.037051976
107	0x3c54b510	0.012982622
108	0x3cbf21b3	0.023331499
109	0xbd684506	-0.05670645
110	0xbd337d97	-0.043820944
111	0x3cf634c1	0.030054452
112	0x3b78f3aa	0.0037987032
113	0x3c4363d9	0.011925661
114	0xbc57ff25	-0.01318339
115	0x3c213d64	0.009841297
116	0x3bd77264	0.0065749157
117	0x3c09c30a	0.008408317
118	0x3b0b3275	0.0021239792
119	0xbb83995c	-0.0040160846
120	0xbca05a79	-0.01957439
121	0x3b7d39c6	0.0038639172
122	0x3d2d4a31	0.042307083
123	0xbc863462	-0.0163824
124	0xbb137295	-0.0022498716
125	0x3b9f131d	0.0048545734
126	0x3c20c66b	0.0098129315
127	0xbb81cd79	-0.003961262
128	0xbd81ef4a	-0.06344469
129	0x3ce19262	0.027535621
130	0xbafd3dd4	-0.0019320794
131	0xbbf6b9a2	-0.0075294534
132	0xbbbb1860	-0.005709693
133	0x3d388972	0.045052953
134	0x3c29693b	0.01034003
135	0x3b90fd7c	0.004424749
136	0x3cdfa3f1	0.027299853
137	0x3d2ae4bc	0.041722044
138	0x3d85f6d7	0.065412216
139	0x3c3c5a30	0.011496112
140	0xbc5e421c	-0.013565566
141	0x3c55cdf1	0.013049589
142	0x3c39e088	0.011345036
143	0xbccc6ce7	-0.024954272
144	0xbc650472	-0.013978111
145	0xbd6a41a5	-0.05719151
146	0x3daff109	0.08590896
147	0xbd8a77bb	-0.06761118
148	0x3d9137e5	0.07090739
149	0x3c8dd859	0.017315077
150	0x3df72eed	0.12069497
151	0xbd722134	-0.059113696
152	0xbc9b5b26	-0.018964361
153	0xbdab7218	-0.08371371
154	0xbd866f1d	-0.06564162
155	0x3db49cab	0.088189445
156	0xbd038df1	-0.032117788
157	0x3e02bd05	0.12767418
158	0xbd541fb7	-0.051788058
159	0xbca1d46f	-0.019754617
160	0xbd3b7b82	-0.045772083
161	0xbcd75a6d	-0.026288236
162	0xba6ed32c	-0.00091104466
163	0x3c91079d	0.017703826
164	0xbcda3f8b	-0.026641628
165	0x3c26c927	0.010179794
166	0xbd99beca	-0.07507093
167	0x3d7b033a	0.061282374
168	0x3d1bef2d	0.038069893
169	0xbd834418	-0.06409472
170	0xbd122247	-0.03567722
171	0x3c972055	0.018448034
172	0x3c2b8179	0.01046788
173	0xbdddc7ca	-0.10829122
174	0x3cca0dbf	0.024664758
175	0x3bbadbc1	0.0057024662
176	0x3d65899e	0.056039445
177	0x3da77a43	0.081776164
178	0xbd8a98e6	-0.06767444
179	0x3cf888f5	0.030338744
180	0xbd2b13a8	-0.041766793
181	0xbcab4395	-0.020906249
182	0xbd8eb3b4	-0.069678694
183	0x3ce809c7	0.028324975
184	0xbcc27668	-0.023738101
185	0x3e1e02da	0.15430775
186	0x3dc3b54f	0.09556066
187	0xbde1c269	-0.11023409
188	0x3d102c77	0.035198655
189	0xbd267381	-0.040637497
190	0x3d523053	0.051315617
191	0x3c2044e2	0.009782048
192	0xbbb39d9f	-0.0054814364
193	0xbd687548	-0.056752473
194	0xbc3df446	-0.011593884
195	0x3cb9bb2b	0.022672256
196	0x3c84d577	0.01621507
197	0xbc532fbd	-0.0128898
198	0x3d4ede75	0.05050512
199	0x3c58a0b5	0.013221909
200	0xbc0a9fd2	-0.008460956
201	0x3d9a16eb	0.075239025
202	0x3bf1ad8e	0.0073754257
203	0xbd323bd6	-0.043514095
204	0x3a027f54	0.000497808
205	0xbd8f7e8f	-0.07006561
206	0x3c8d967a	0.017283667
207	0xbb89ed03	-0.004209162
208	0x3d403a19	0.046930406
209	0x3d256c47	0.040386464
210	0xbd3676b0	-0.044546783
211	0xbc365bc9	-0.011130282
212	0xbdb509d7	-0.088397674
213	0xbdb8ddd9	-0.09026689
214	0x3c928248	0.017884389
215	0x3d182221	0.037141923
216	0x3d316655	0.043310482
217	0x3dc64860	0.09681773
218	0x3d082c38	0.033245295
219	0xbcd65853	-0.026165163
220	0x3c2a981b	0.010412241
221	0x3b938660	0.0045021027
222	0xbd698fff	-0.05702209
223	0xbbe46828	-0.006970424
224	0x3d895af3	0.067068
225	0x3cf0c5a7	0.029391123
226	0xbd378911	-0.04480845
227	0xbd2251f1	-0.039628927
228	0xbdbe0c4e	-0.09279691
229	0xbe0e1a8d	-0.13877316
230	0x3d5e0a24	0.05420889
231	0x3d479479	0.04872558
232	0xbc52beaa	-0.012862841
233	0x3db7e4aa	0.08979161
234	0x3d839288	0.06424433
235	0x3c8ee9ca	0.017445464
236	0x3cb60506	0.022219192
237	0x3d416ff3	0.047225904
238	0xbdbae12f	-0.091249816
239	0xbaef6529	-0.0018264401
240	0x3c0b1c76	0.008490672
241	0x3cbbd493	0.022928512
242	0xbd1a42d8	-0.037661403
243	0xbc8c5a9d	-0.017133052
244	0xbc93af1e	-0.018027838
245	0x3d4f7c23	0.050655495
246	0xbe16ec6f	-0.1473863
247	0xbce5d910	-0.028057605
248	0xbd799b5e	-0.060939185
249	0x3d9cd009	0.07656867
250	0xbd226e73	-0.039656114
251	0x3e44dead	0.19225569
252	0x3d411aae	0.047144584
253	0x3dc147e3	0.094375394
254	0xbe19bb72	-0.15012911
255	0x3b8f21a8	0.004368026

conv2.0.weight f4 [64, 32, 4, 4]
0	0x3c4fbf86	0.01267994
1	0xbc266af6	-0.010157337
2	0xbd906f28	-0.07052451
3	0xbda13bcf	-0.07872736
4	0xbcf7c1ad	-0.030243719
5	0xbdcbd517	-0.09952753
6	0xbd2beebe	-0.04197573
7	0xbd072f8f	-0.03300434
8	0xbbb9f3d5	-0.005674819
9	0xbd5b4608	-0.053533584
10	0xbd33f254	-0.043932274
11	0x3d4fe392	0.050754137
12	0xbc8d8c8e	-0.017278936
13	0x3d200f55	0.03907712
14	0x3dae6666	0.08515625
15	0x3ce60c9d	0.028082186
16	0x3d9a3239	0.075291105
17	0xbd06e163	-0.03292979
18	0x3b745a62	0.0037285318
19	0x3d9b3fe3	0.07580545
20	0xbda609fa	-0.08107372
21	0xbe236aa4	-0.15958649
22	0x3dae5ad6	0.08513419
23	0x3d8f24af	0.06989419
24	0xbc9984ad	-0.018740023
25	0x3d51ad99	0.051190946
26	0x3e28188e	0.16415617
27	0x3cf77a44	0.030209668
28	0x3d512317	0.051058855
29	0x3dee2979	0.11629004
30	0x3daffcfa	0.08593173
31	0xbdcdda87	-0.100514464
32	0x3e1a864f	0.15090297
33	0x3d12b64b	0.03581838
34	0xbe10d73e	-0.14144608
35	0xbbdb6637	-0.0066955346
36	0x3d8efd95	0.06981961
37	0xbdff5275	-0.12466899
38	0xbe916128	-0.28394437
39	0x3d01a8f3	0.031655263
40	0xbe03fcf3	-0.12889461
41	0xbe5bf19e	-0.21478888
42	0x3d7a9d39	0.061185095
43	0x3c712753	0.014718848
44	0x3cd1374e	0.025539067
45	0x3d968701	0.07349969
46	0x3ea65d17	0.32492897
47	0x3dc7673d	0.09736488
48	0xbded258a	-0.11579426
49	0xbdb2956f	-0.087199084
50	0xbde5303c	-0.111908406
51	0xbc7813f8	-0.01514148
52	0xbde2a65a	-0.11066885
53	0xbe8ae593	-0.27128276
54	0xbce586e4	-0.028018422
55	0x3da6061a	0.081066325
56	0xbe12a691	-0.14321353
57	0x3dd55d0c	0.10418138
58	0x3e556907	0.20840846
59	0x3d86c820	0.065811396
60	0xbd8d0b5d	-0.06886933
61	0x3e877e8a	0.2646373
62	0x3e145930	0.14487147
63	0xbd05fec1	-0.032713655
64	0x3d9314c6	0.071816966
65	0xbd1dd10e	-0.03852945
66	0x3c4e27af	0.0125827035
67	0x3da24df8	0.079250276
68	0x3dfb7f34	0.122801214
69	0x3d99c604	0.075084716
70	0x3d394509	0.045231853
71	0x3a508703	0.00079546886
72	0xbd02489b	-0.031807523
73	0xbd28c876	-0.0412068
74	0x3c3f6772	0.011682378
75	0xbd60b519	-0.05486021
76	0xbdcc044a	-0.099617556
77	0xbe05a8bb	-0.13052647
78	0xbdaf908b	-0.08572491
79	0xbd222dc3	-0.039594423
80	0xbdf63bee	-0.120231494
81	0x3dc675ba	0.09690423
82	0xbddfd8e7	-0.10930043
83	0x3d73f9e3	0.059564482
84	0x3cc7f2f3	0.02440784
85	0x3cc1fd30	0.0236803
86	0xbda54548	-0.08069855
87	0x3de9d993	0.11418452
88	0xbd5ddc2a	-0.054165043
89	0xbe0501c2	-0.12988952
90	0x3de2435d	0.11048005
91	0x3ded7b51	0.11595786
92	0xbda23d02	-0.079217926
93	0x3d530533	0.05151863
94	0x3e185385	0.1487561
95	0xbe215a5d	-0.15757127
96	0x3d858494	0.06519428
97	0x3db9be12	0.09069456
98	0xbdfa0097	-0.12207144
99	0xbdc04dd9	-0.09389848
100	0xb8e9901c	-0.00011137148
101	0xbdbacb32	-0.09120788
102	0x3cad05c1	0.021120908
103	0x3cfdf941	0.031002643
104	0xbdb08a4e	-0.086201295
105	0xbd11e246	-0.03561618
106	0x3c6f80d4	0.014618117
107	0xbd3d5844	-0.046226755
108	0x3d2af2ba	0.04173539
109	0x3aa37ed2	0.0012473708
110	0xbd3273fb	-0.04356764
111	0xbc14d959	-0.009085023
112	0x3c2b9a2b	0.010473768
113	0xbdaa72ff	-0.08322715
114	0x3cd9e4d9	0.02659838
115	0x3cd1e46d	0.025621617
116	0xbd918222	-0.07104899
117	0xbe14c0a7	-0.14526616
118	0x3de67de9	0.11254484
119	0xbd7df76a	-0.06200353
120	0xbd6b9fc3	-0.057525408
121	0x3d6f90da	0.05848775
122	0xbdb4240b	-0.08795937
123	0x3cce548d	0.025186801
124	0xbc473b17	-0.012160084
125	0x3dfe5b91	0.12419809
126	0x3d148332	0.03625793
127	0xbd15c443	-0.036564123
128	0xbd8a4aec	-0.067525715
129	0xbd560177	-0.05224749
130	0x3d87b725	0.06626729
131	0xbc7a23b6	-0.015267303
132	0xbd0b2d32	-0.03397865
133	0xba9f8b37	-0.0012172227
134	0xbd85c7d8	-0.06532258
135	0xbcf16f15	-0.029471913
136	0x3c0ac14b	0.008468936
137	0xbbb7f7bc	-0.005614249
138	0xbd8e9d16	-0.069635555
139	0xbdd2c5b7	-0.10291617
140	0x3d0ac907	0.03388312
141	0xbc496707	-0.01229263
142	0x3d065a1a	0.03280077
143	0x3c804217	0.015656514
144	0xbcc049b9	-0.023472654
145	0x3daa1c02	0.08306123
146	0x3c9b2462	0.018938247
147	0xbd05baa9	-0.032648716
148	0xbd96ce27	-0.07363539
149	0xbca00fc5	-0.01953877
150	0xba66ce83	-0.00088045764
151	0x3bed55c7	0.0072428915
152	0x3d42af62	0.04753054
153	0x3c7346b0	0.014848396
154	0x3e40845d	0.18800493
155	0x3da37a08	0.0798226
156	0x3ba64cc1	0.0050750677
157	0xbd50b355	-0.050952274
158	0x3d9f3c5e	0.07775186
159	0xbd885ee2	-0.066587225
160	0x3c971bd1	0.018445881
161	0x3c1d91a0	0.009617239
162	0x3d0d0380	0.034427166
163	0x3db1da11	0.08684171
164	0x3ae9e7b3	0.0017845541
165	0xbd778027	-0.06042495
166	0xbcf8812b	-0.03033503
167	0xbc4a9bc8	-0.012366243
168	0xbc378961	-0.011202187
169	0xbb3c276a	-0.0028710016
170	0x3c5a1094	0.013309617
171	0xbd83569c	-0.06413004
172	0x3d26bc92	0.04070718
173	0x3cf40481	0.029787304
174	0x3d8690c5	0.06570581
175	0x3a9f8069	0.0012169007
176	0x3de71f3d	0.11285255
177	0xbd8973b5	-0.067115225
178	0x3d8f7696	0.0700504
179	0x3e10feb7	0.14159666
180	0xbdcaae0e	-0.098964795
181	0xbd5ea25e	-0.054354064
182	0xbd0ac933	-0.033883285
183	0xbd6c9ac6	-0.05776479
184	0x3d284263	0.041078936
185	0xbdbf77f5	-0.09349052
186	0x3c590963	0.013246867
187	0xbc972e7a	-0.018454779
188	0xbcc7b9cd	-0.024380589
189	0x3d3d0c0d	0.04615407
190	0x3e7de5ef	0.24794744
191	0x3d0b0c60	0.03394735
192	0x3dae6ce3	0.08516862
193	0x3dfde5cd	0.12397347
194	0x3d810e58	0.06301564
195	0x3c00305e	0.007824032
196	0x3e00f8aa	0.12594858
197	0xbdae7e0d	-0.08520136
198	0xbe2e072a	-0.1699492
199	0xbe18e5e8	-0.14931452
200	0x3d7da86f	0.06192821
201	0xbe07f4b5	-0.13276942
202	0xbcdba3b6	-0.026811462
203	0x3d80b9ef	0.06285464
204	0xbd30f1b5	-0.04319926
205	0x3bcbc88d	0.006218976
206	0x3e3fb08a	0.18719688
207	0x3e2a4a83	0.16629986
208	0x3ae2b883	0.001729742
209	0x3c482f37	0.012218288
210	0xbc09dd4b	-0.008414577
211	0xbd4eb045	-0.050461072
212	0x3cf0da17	0.029400868
213	0x3d998f79	0.07498068
214	0x3d2f2e46	0.04276874
215	0xbc4a8d57	-0.0123628
216	0x3dc85338	0.09781498
217	0x3aebc87e	0.0017988828
218	0xbd17e8ae	-0.037087135
219	0x3dd7e69f	0.10542034
220	0xbd4f4022	-0.05059827
221	0x3c4df3d6	0.012570342
222	0xbdba8d6e	-0.09109007
223	0x3bd11ed0	0.006381847
224	0x3bdf591c	0.0068160426
225	0xbb5adb5f	-0.0033394916
226	0xbdf5d5ef	-0.12003695
227	0xbd6315e7	-0.05544081
228	0xbddf97c7	-0.10917621
229	0xbcc502f2	-0.024049256
230	0xbda14063	-0.07873609
231	0xbd0cd276	-0.0343804
232	0xbcd50be2	-0.026006643
233	0x3aefe5d3	0.0018302746
234	0x3e3c9089	0.18414511
235	0x3d375869	0.04476205
236	0xbce45a00	-0.027874947
237	0xbd920088	-0.071290076
238	0x3d3f394f	0.046685513
239	0x3bc60897	0.0060435045
240	0x3dd4cb32	0.10390319
241	0xbdd1d959	-0.10246534
242	0xbdfcfeae	-0.12353264
243	0x3b53ff9e	0.0032348405
244	0xbe3627d5	-0.17788632
245	0xbe85a9de	-0.2610616
246	0xbe242399	-0.16029204
247	0x3cf4468f	0.029818801
248	0x3d561167	0.05226269
249	0xbd78942a	-0.060688175
250	0xbd2515fc	-0.04030417
251	0x3e29f843	0.1659861
252	0x3cda6ccf	0.026663212
253	0x3cb77386	0.022393953
254	0x3c0cc6fe	0.008592365
255	0xbb23ff30	-0.002502393

conv2.1.weight f4 [64]
0	0x3eab15b8	0.33415008
1	0x3f32cbf0	0.69842434
2	0x3e852b8e	0.26009792
3	0x3f37ad54	0.7174885
4	0x3e9deef8	0.3084638
5	0x3eee9d94	0.46604598
6	0x3f26a33e	0.6509284
7	0x3efe72ba	0.49696904
8	0x3f03dd2d	0.5150936
9	0x3f1833e8	0.594542
10	0x3eebb488	0.46036172
11	0x3f4dc75a	0.8038231
12	0x3f051b09	0.5199438
13	0x3efc44bf	0.492712
14	0x3ec22cbf	0.37924764
15	0x3ee9a139	0.45630816
16	0x3f31ffa9	0.6953073
17	0x3e840d2d	0.25791302
18	0x3e657da6	0.22411212
19	0x3ea3c4a5	0.31985965
20	0x3f21b97a	0.6317364
21	0x3f0856cd	0.5325745
22	0x3ec5fafd	0.3866805
23	0x3ebfbe52	0.3744989
24	0x3ee58e3a	0.44835073
25	0x3f131c55	0.57465106
26	0x3ef34f09	0.47521237
27	0x3f0b7001	0.5446778
28	0x3ec63e6b	0.38719496
29	0x3f333a1b	0.70010537
30	0x3f0a2fa2	0.5397893
31	0x3edf2f53	0.43590793
32	0x3e8652db	0.2623509
33	0x3f24a453	0.6431324
34	0x3f2b4cda	0.6691414
35	0x3f046a48	0.5172467
36	0x3f43e836	0.765262
37	0x3eebac1a	0.4602974
38	0x3ecf1edd	0.40453234
39	0x3ec3eaff	0.38265225
40	0x3eb3bb75	0.35103956
41	0x3f02a946	0.5103954
42	0x3f265520	0.6497364
43	0x3f29e925	0.66371375
44	0x3eab66f6	0.3347699
45	0x3f6daf8d	0.92845994
46	0x3f467274	0.7751839
47	0x3ebae7c5	0.3650495
48	0x3f63758c	0.8885124
49	0x3f028065	0.50977165
50	0x3ee895f0	0.45426893
51	0x3f012a1c	0.5045488
52	0x3f0e81fe	0.556671
53	0x3eacb383	0.33730707
54	0x3f08bd81	0.5341416
55	0x3ebb9c2f	0.36642596
56	0x3f12dac8	0.57365084
57	0x3eb19bea	0.34689265
58	0x3ed18b3a	0.40926534
59	0x3ef42364	0.4768325
60	0x3e2e9d49	0.17052187
61	0x3e8ee303	0.2790757
62	0x3ed8ed28	0.42368436
63	0x3f198b57	0.5997824

conv2.1.bias f4 [64]
0	0xbca23201	-0.019799234
1	0xbeaee4f4	-0.34159052
2	0x3d385982	0.045007236
3	0xbe2293c2	-0.15876678
4	0xbe2d77dc	-0.16940254
5	0xbdcb3de4	-0.09923914
6	0xbe412acf	-0.18863986
7	0xbecc9c95	-0.39963213
8	0xbe60974c	-0.21932715
9	0xbea7cac3	-0.32771882
10	0xbeaeb18f	-0.3411984
11	0xbedb90a9	-0.42883804
12	0xbe077823	-0.13229422
13	0xbe0cee9e	-0.137629
14	0x3dbd5ed4	0.09246603
15	0xbdf69d7e	-0.12041758
16	0xbf0475d1	-0.51742274
17	0x3db9ff40	0.09081888
18	0x3cba7d1c	0.022764735
19	0x3d7ab8db	0.06121145
20	0xbe89939a	-0.26870424
21	0xbda9ff93	-0.083007
22	0xbe42c132	-0.1901901
23	0xb8dc1ca1	-0.0001049575
24	0xbdc9aecf	-0.09847795
25	0xbe09c8fc	-0.13455576
26	0xbd7bdd16	-0.06149014
27	0xbe617ee4	-0.22021061
28	0xbd1858af	-0.03719395
29	0xbea0fdaa	-0.3144353
30	0xbee8ca69	-0.45466927
31	0xbdd62ea0	-0.10458112
32	0x3b3b9de3	0.0028628043
33	0xbe8ac39f	-0.27102372
34	0xbedf32a5	-0.43593326
35	0xbeb9be67	-0.36278078
36	0xbebac2cc	-0.36476743
37	0xbe13c5cd	-0.14430924
38	0xbe72e28f	-0.23719238
39	0xbdc2eb12	-0.09517492
40	0xbd9bd2a6	-0.076085374
41	0xbe631068	-0.22174227
42	0xbeb825c6	-0.3596632
43	0xbe6e563c	-0.23275083
44	0xbd7a9642	-0.061178453
45	0xbebe5355	-0.37172952
46	0xbe0988c2	-0.13431075
47	0x3db46ce8	0.08809835
48	0xbe8edfc0	-0.27905083
49	0xbe61aa70	-0.22037673
50	0xbe94e956	-0.2908427
51	0xbe69730f	-0.22797798
52	0xbe71a612	-0.23598507
53	0xbca2906c	-0.019844256
54	0xbe1e661f	-0.15468644
55	0xbe2269cf	-0.15860675
56	0xbe557b30	-0.20847774
57	0xbcaa0445	-0.020753989
58	0xbdf797a2	-0.120894685
59	0x3d65726e	0.05601733
60	0x3ddccd92	0.10781397
61	0x3d3d7523	0.04625429
62	0xbd921a9d	-0.07133982
63	0xbebd1698	-0.369313

conv2.1.running_mean f4 [64]
0	0xbb54bd1d	-0.0032461353
1	0x3d08967a	0.03334663
2	0x3b66dee5	0.003522807
3	0xb99b0e4d	-0.0002957456
4	0x3d8740f5	0.066041864
5	0x3c5cf612	0.013486402
6	0xbd8ccff9	-0.06875605
7	0xbbf0b115	-0.0073453286
8	0x3d961575	0.07328311
9	0xbc3384ef	-0.010956987
10	0x3d6dbb89	0.058040176
11	0xbd56079b	-0.052253347
12	0xbd1f09da	-0.038827755
13	0xba8707a7	-0.0010301963
14	0xbb17767a	-0.002311139
15	0xbc09b3ba	-0.008404667
16	0xbdd60f3d	-0.10452125
17	0x3b30b366	0.0026962399
18	0xbaeadaa2	-0.0017917941
19	0xbd57a4b4	-0.052647308
20	0x3b988ee5	0.004655706
21	0x3ca3fe8d	0.02001884
22	0xbb8a535a	-0.004221362
23	0xba80ef66	-0.0009836971
24	0x3c3169bf	0.0108284345
25	0xbd538aee	-0.051646166
26	0xbc44d5da	-0.012013877
27	0x3a469287	0.0007574935
28	0xbba073ea	-0.0048966305
29	0xbd2777db	-0.040885787
30	0xbba568e8	-0.005047906
31	0xbc2eba10	-0.010664478
32	0x3c72b55d	0.014813748
33	0xbce37cac	-0.02776941
34	0xbc39d349	-0.011341878
35	0x3e0fcf4d	0.14043923
36	0x3c2f778e	0.010709656
37	0xbcc7e49a	-0.024400998
38	0x3d71dc2c	0.059047863
39	0xbadca95d	-0.0016835142
40	0xbae088ec	-0.001713065
41	0x3d24c77a	0.0402293
42	0xbc680f8a	-0.014163861
43	0x3a76c45e	0.0009413416
44	0x3ceb3dc4	0.028715976
45	0xbd90b172	-0.07065095
46	0xbda7d5ec	-0.08195099
47	0xbb053305	-0.00203246
48	0xbcd51ef5	-0.026015738
49	0x3d9f73bd	0.07785747
50	0xbc2418fe	-0.010015724
51	0x3cb170c9	0.021660225
52	0xbb543677	-0.0032381096
53	0xbbd052d7	-0.0063575315
54	0xbc88f9cd	-0.016720677
55	0xbbda8022	-0.0066681067
56	0xbd4efa5c	-0.05053173
57	0x3b80b084	0.0039272923
58	0xbb256e1f	-0.002524264
59	0xbda59cc0	-0.08086538
60	0x3cd880a1	0.026428523
61	0x3c209a59	0.009802424
62	0xbce3f82c	-0.027828299
63	0xbc994287	-0.01870848

conv2.1.running_var f4 [64]
0	0x3a8a7f21	0.0010566452
1	0x3b00877f	0.0019612012
2	0x3a3cddf4	0.00072047045
3	0x37b4115f	2.1465761e-05
4	0x3aef1c28	0.0018242644
5	0x3ae56978	0.0017502746
6	0x3abba1a5	0.0014315142
7	0x3a881ac4	0.0010383953
8	0x3afa37a9	0.0019090074
9	0x3ab21d9d	0.0013589148
10	0x3aec3d55	0.001802365
11	0x3b9018ea	0.0043975012
12	0x3ae9ca7f	0.0017836838
13	0x3790c987	1.7259981e-05
14	0x3802fba0	3.122876e-05
15	0x3a375e37	0.0006994935
16	0x3b40d124	0.0029421533
17	0x388c7ea9	6.6993125e-05
18	0x382eee79	4.1706928e-05
19	0x3a8ae611	0.001059713
20	0x3af5304f	0.0018706414
21	0x3ae34c26	0.001734142
22	0x39b2d904	0.00034112495
23	0x38603a44	5.3460026e-05
24	0x3aa0cf90	0.001226889
25	0x3acd6cf0	0.0015672725
26	0x3a50142f	0.0007937578
27	0x3a9a4e41	0.0011772589
28	0x3ac4e734	0.0015022517
29	0x3a98d31d	0.0011659596
30	0x3a09c6e8	0.00052557746
31	0x3a734759	0.0009280346
32	0x3af29783	0.0018508289
33	0x3a8aa969	0.0010579053
34	0x3a870501	0.0010301174
35	0x3ae6449a	0.0017568052
36	0x3b084d05	0.002079786
37	0x3a7c4fb1	0.0009624912
38	0x3ac25d19	0.0014828771
39	0x399856ee	0.00029056467
40	0x3a1beb7d	0.0005947871
41	0x3aa6aa87	0.0012715616
42	0x3a6ce101	0.0009036214
43	0x37530dd1	1.2579797e-05
44	0x3a9e8a4f	0.0012095663
45	0x3b8bf17d	0.004270731
46	0x3b25ca1b	0.0025297466
47	0x382b7359	4.0877003e-05
48	0x3b449e8e	0.0030001733
49	0x3ae9d2c2	0.00178393
50	0x39980a64	0.0002899944
51	0x3ac7a84c	0.0015232651
52	0x38ddd043	0.00010576893
53	0x3ad071bf	0.001590304
54	0x3960ab92	0.0002142622
55	0x3a078937	0.0005170288
56	0x3aa0ad43	0.0012258667
57	0x3a9d38fa	0.001199513
58	0x3a65dddb	0.0008768716
59	0x3b3d35d6	0.00288712
60	0x3ab11689	0.0013510744
61	0x3af948fd	0.0019018945
62	0x3b1a4b6a	0.0023543485
63	0x3aa3b93e	0.001249112

conv3.0.weight f4 [128, 64, 4, 4]
0	0xbd4c2200	-0.049837112
1	0x3d40406b	0.046936434
2	0x3c8a7eca	0.01690616
3	0xbd927bd6	-0.07152526
4	0x3cd1e020	0.025619566
5	0xbcf6399d	-0.030056769
6	0x3dc1f613	0.09470763
7	0x3c1a1b71	0.009405957
8	0x3cb52a99	0.022115039
9	0x3c7c8901	0.015413524
10	0x3d3c1938	0.045922488
11	0x3d26cf16	0.040724836
12	0xbe16de6a	-0.14733282
13	0xbcc7655e	-0.024340328
14	0x3be48a86	0.006974521
15	0x3dd181de	0.10229848
16	0x3e0b81a7	0.13623677
17	0x3d6245ff	0.055242535
18	0xbd56f9e7	-0.05248442
19	0xbd0529bc	-0.032510504
20	0x3da39e4e	0.079891786
21	0x3cd64c28	0.026159361
22	0x3c8b57e8	0.01700969
23	0x3d62390f	0.055230197
24	0x3cfdfdcd	0.03100481
25	0x3cc08b28	0.023503855
26	0x3d4a1bd7	0.049342956
27	0x3e1731ae	0.14765045
28	0x3cfb6023	0.03068549
29	0xbc93e3d7	-0.018052978
30	0x3b033d62	0.00200256
31	0x3d87c1eb	0.06628784
32	0xbdf00d44	-0.1172128
33	0xbd600b2c	-0.054698154
34	0xbdbead74	-0.09310427
35	0xbd2c4baa	-0.042064346
36	0x3c157d17	0.009124062
37	0x3c9c90a5	0.01911194
38	0xbd44fb0b	-0.048090976
39	0xbd6fa632	-0.058508106
40	0xbe080f2d	-0.13287039
41	0xbc86de92	-0.016463552
42	0xbdc3ddef	-0.09563815
43	0x3d2a1bee	0.041530542
44	0x3c0972a0	0.008389145
45	0xbca55f5c	-0.020187072
46	0xbd355054	-0.04426606
47	0xbd663796	-0.056205355
48	0xbe993864	-0.29925835
49	0xbddd8d8b	-0.10818013
50	0xbe482bf0	-0.19548011
51	0xbca4147c	-0.020029299
52	0xbe528103	-0.20557027
53	0xbe058a1b	-0.13040964
54	0xbe21a864	-0.15786892
55	0x3c7b0b9d	0.015322593
56	0xbd1f060a	-0.03882412
57	0xbcfd5ecb	-0.03092899
58	0xbd43c1b1	-0.04779214
59	0xbd4ad464	-0.049518958
60	0xbca726f8	-0.020404324
61	0xbdd5e78a	-0.10444553
62	0xbdbc49de	-0.091937765
63	0xbd83e061	-0.06439281
64	0x3c010ec0	0.007877052
65	0x3d76244a	0.0600932
66	0xbd8f7239	-0.07004208
67	0x3d85f168	0.06540185
68	0xbcd9a92c	-0.026569925
69	0xbe0027ab	-0.12515132
70	0x3cf4c1e0	0.029877603
71	0x3c0c4228	0.008560695
72	0xbd8bac09	-0.068199225
73	0x3d8b5538	0.068033636
74	0x3b0bd894	0.0021338807
75	0x3dc902fd	0.09815023
76	0xbd869554	-0.06571451
77	0x3e0645f0	0.13112617
78	0xbd8a1584	-0.06742385
79	0x3b4f3ffa	0.0031623826
80	0xbc703b81	-0.014662624
81	0x3c71c8db	0.01475736
82	0xbce822fe	-0.028336998
83	0xbc710000	-0.014709473
84	0xbb2cc53b	-0.0026362676
85	0x3d243d8d	0.040097762
86	0x3c9960c9	0.018722909
87	0x3d00d500	0.031453133
88	0x3de92694	0.11384311
89	0x3cab35a9	0.02089961
90	0x3d7e4003	0.062072765
91	0xbc4c88ec	-0.012483817
92	0xbdb50a38	-0.0883984
93	0xbbce4dbe	-0.0062958887
94	0xbd648c04	-0.05579759
95	0xbdae018f	-0.08496391
96	0x3d31d888	0.04341939
97	0x3cd96010	0.026535064
98	0x3dd03b08	0.10167509
99	0x3dfec218	0.12439364
100	0x3ce1f686	0.027583372
101	0x3d424096	0.047424875
102	0x3d9aa963	0.07551839
103	0x3d67efd5	0.056625206
104	0x3d145874	0.036217168
105	0x3dcdd862	0.10051037
106	0x3bfef241	0.0077803438
107	0x3d62c13d	0.055360068
108	0x3ce4a26a	0.027909476
109	0x3d4123f9	0.047153447
110	0x3c2108ea	0.009828785
111	0x3ce3a874	0.027790286
112	0x3ca8fd08	0.020628467
113	0x3d18535a	0.037188865
114	0x3d9d25f4	0.076732546
115	0x3c85aaf8	0.016316876
116	0x3cba92f5	0.022775153
117	0x3d2e5419	0.04256067
118	0xbbe18941	-0.006882817
119	0xbbdc09df	-0.006715044
120	0xbd82a653	-0.0637938
121	0x3d6bd45d	0.057575572
122	0xbca92655	-0.020648161
123	0x3d2b5dee	0.041837625
124	0x3d8f37fc	0.069931
125	0x3cf2bcf7	0.029631121
126	0x3d38bf67	0.04510441
127	0xbb4b5e7a	-0.0031031654
128	0xbd06082f	-0.03272265
129	0x3cca34cf	0.024683384
130	0x3d5dfdba	0.05419705
131	0x3dbd9591	0.09257043
132	0x3d2cd9b1	0.042199794
133	0x3d829a4c	0.06377086
134	0x3d1581bb	0.036500674
135	0x3d7448be	0.059639685
136	0x3d8031c1	0.0625949
137	0x3bae206e	0.0053139245
138	0x3da5fa30	0.0810436
139	0x3cce36f0	0.02517268
140	0xbbeb2278	-0.00717574
141	0x3ce17771	0.027522774
142	0x3d321beb	0.043483656
143	0x3d0b5c64	0.034023657
144	0x3d3e7d32	0.046506114
145	0x3d596f8b	0.05308489
146	0x3d87b9bd	0.06627224
147	0x3e18dd52	0.14928177
148	0x3d0bf20d	0.034166384
149	0xbd76b6a1	-0.060232762
150	0xbc6f88e0	-0.014620036
151	0x3d50d633	0.050985526
152	0xbbc00846	-0.0058603613
153	0x3df4d95a	0.11955519
154	0x3dd23108	0.10263258
155	0x3d5f8b9b	0.054576498
156	0x3d42f3a3	0.04759563
157	0x3d185acb	0.037195962
158	0xbd180de3	-0.03712262
159	0xbd5f4a27	-0.054514077
160	0x3dc84be9	0.09780104
161	0x3d6b744c	0.057483956
162	0x3ccc70fc	0.024956219
163	0x3cf82416	0.030290645
164	0x3db43a54	0.08800188
165	0x3c7d380b	0.015455256
166	0x3da21df9	0.07915873
167	0xbd767cfb	-0.060177784
168	0x3d0f569d	0.03499471
169	0x3c124922	0.008928569
170	0x3ce38a08	0.02777578
171	0x3c9effc1	0.019409062
172	0x3ca3cdf0	0.01999566
173	0x3daa84f3	0.08326139
174	0x3c8b364d	0.016993666
175	0x3d4b191a	0.049584486
176	0x3b95a284	0.0045664925
177	0x3d6aaa1f	0.057291146
178	0x3d975e91	0.07391084
179	0x3d95a18f	0.073062055
180	0x3c3abd84	0.011397723
181	0x3dc06548	0.09394318
182	0xbc8526c7	-0.016253842
183	0x3cd2de58	0.025740787
184	0x3ce2e420	0.02769667
185	0x3c7bd109	0.015369662
186	0xbbdb3856	-0.0066900654
187	0xbcbded41	-0.02318442
188	0x3d015beb	0.0315818
189	0xbd4a24d7	-0.04935154
190	0x3db710c6	0.08938746
191	0x3d250d7c	0.040296063
192	0x3d02dad1	0.03194696
193	0x3d0a59c3	0.03377701
194	0x3b107da0	0.0022047535
195	0x3c14e140	0.009086907
196	0xbd88a393	-0.06671824
197	0x3cf44539	0.029818164
198	0xbde951e7	-0.11392575
199	0xbbff9c74	-0.007800633
200	0x3d5211fe	0.05128669
201	0xbd1297e5	-0.03578939
202	0xbdb7c0ac	-0.08972296
203	0xbd4b515a	-0.04963813
204	0x3d24eb52	0.04026348
205	0x3de8d324	0.11368397
206	0x3d4f1ab7	0.050562587
207	0x3d56b228	0.052415997
208	0x3d3b070c	0.045661017
209	0x3a8aa811	0.0010578652
210	0x3cd55c8f	0.026045112
211	0xbce9276c	-0.02846118
212	0xbc8c5ee0	-0.017135084
213	0x3d93ca93	0.07216372
214	0x3dbf2396	0.09332959
215	0x3d0fe34a	0.03512887
216	0x3d8cf90d	0.0688344
217	0x3bf00934	0.007325316
218	0xbc5e64bd	-0.013573823
219	0x3d369dba	0.044584014
220	0x3d3ed700	0.04659176
221	0x3d2796b3	0.040915202
222	0xbd52186e	-0.05129283
223	0xbcf9b195	-0.030480186
224	0xbe016d42	-0.12639335
225	0xbe92ff75	-0.28710523
226	0xbe1d4288	-0.15357411
227	0xbcbdc0e1	-0.02316326
228	0xbe8484a9	-0.25882462
229	0xbed0903e	-0.40735048
230	0xbebf44de	-0.3735723
231	0xbd4fe874	-0.050758794
232	0xbea147eb	-0.31500182
233	0xbe76b792	-0.24093464
234	0xbe8bc555	-0.2729899
235	0xbe5f1c5c	-0.21788162
236	0xbc091bc6	-0.008368438
237	0xbd69ba3b	-0.05706237
238	0xbdf691c4	-0.12039521
239	0xbcc1794d	-0.023617411
240	0x3d1a5f4d	0.037688542
241	0xbc8b8224	-0.01702983
242	0x3d2f3939	0.04277918
243	0xbd0a516b	-0.033769052
244	0xbc1d7fc9	-0.009612986
245	0xbbc093db	-0.0058770007
246	0x3d0c155e	0.034200065
247	0xbc1869fe	-0.009302614
248	0xbcee3903	-0.02907992
249	0x3d08d048	0.033401757
250	0x3dc2b0ff	0.095064156
251	0xbbdc5b6e	-0.0067247665
252	0x3d43657a	0.047704197
253	0x3d56a12c	0.0523998
254	0xbb753060	-0.0037412867
255	0x3c940af8	0.018071637

conv3.1.weight f4 [128]
0	0x3f2efff2	0.6835929
1	0x3f470329	0.77739197
2	0x3f4a59a8	0.79043055
3	0x3f4d0a86	0.8009418
4	0x3fa10e96	1.2582576
5	0x3facffaa	1.3515522
6	0x3f276fd9	0.6540504
7	0x3f305712	0.6888286
8	0x3f958c2f	1.1683406
9	0x3f965dd0	1.1747379
10	0x3f75a5fb	0.9595639
11	0x3f57a3b5	0.8423417
12	0x3f1db242	0.61600125
13	0x3fb11835	1.3835512
14	0x3f15a945	0.5846141
15	0x3f8792da	1.059169
16	0x3f5a86a6	0.8536171
17	0x3f5692a3	0.838175
18	0x3f753536	0.9578432
19	0xbf392a2c	-0.72329974
20	0x3f3c09ab	0.7345225
21	0x3f143462	0.5789243
22	0x3f5016b6	0.81284654
23	0x3f10c9a7	0.565577
24	0x3f591b0b	0.8480689
25	0x3f32fdd7	0.6991858
26	0x3f2ad964	0.6673796
27	0x3fa2b641	1.271187
28	0x3f8eb37e	1.1148527
29	0x3f8abb11	1.0838338
30	0x3f17ef20	0.5934925
31	0x3f4329af	0.7623548
32	0x3f2ea454	0.68219495
33	0x3f947914	1.159945
34	0x3f844bab	1.0335592
35	0x3fb48058	1.4101667
36	0x3f3a82e2	0.7285596
37	0x3f6a4d83	0.91524523
38	0x3f1a8d0c	0.6037147
39	0x3f76380a	0.9617926
40	0x3f40452a	0.75105536
41	0x3fa5d4ca	1.2955563
42	0x3fa1e92e	1.2649286
43	0x3f8f9e76	1.1220233
44	0x3f14090c	0.57826304
45	0x3f36fcd5	0.7147954
46	0x3f2bbc45	0.6708415
47	0x3f9f6fd3	1.2456001
48	0x3f6a1371	0.91435915
49	0x3f919d19	1.1376067
50	0x3f4f42b3	0.8096115
51	0x3f6d0382	0.9258348
52	0x3f446576	0.7671732
53	0x3f544f59	0.82933575
54	0x3f4aebd1	0.7926608
55	0x3f0e2752	0.5552875
56	0x3f9529c5	1.1653372
57	0x3f252bef	0.6452016
58	0x3fa5e350	1.2959995
59	0x3f296298	0.6616607
60	0x3f99ec6a	1.2025273
61	0x3f48a2c6	0.7837337
62	0x3f943d9e	1.1581304
63	0x3f5f1685	0.8714374
64	0x3f876678	1.0578146
65	0x3f464b83	0.7745897
66	0x3f942a53	1.1575416
67	0x3f4d1999	0.80117184
68	0x3f41d3e9	0.75713974
69	0x3f17b7aa	0.59264624
70	0x3fa4f899	1.2888366
71	0x3f6b2baf	0.9186353
72	0x3f2f4ec1	0.68479544
73	0x3f405fb7	0.7514605
74	0x3f1f3d2f	0.62202734
75	0x3f19631d	0.5991686
76	0x3f356f20	0.7087269
77	0x3f9c965e	1.2233388
78	0x3f3fab3b	0.7487065
79	0x3f83debb	1.0302347
80	0x3fa558d5	1.2917734
81	0x3f6d70ba	0.9275013
82	0x3f7008f4	0.9376366
83	0x3f36de35	0.7143281
84	0x3f891b04	1.071137
85	0x3f7a2b3d	0.97722226
86	0x3f533aac	0.825114
87	0x3fa12614	1.2589746
88	0x3f991495	1.1959406
89	0x3f8ca5cc	1.0988097
90	0x3f77fba0	0.96868324
91	0x3f9c366d	1.220411
92	0x3f84cfdc	1.0375934
93	0x3f88d9b9	1.0691444
94	0x3fa59fa3	1.2939342
95	0x3f7ded83	0.9919054
96	0x3f62ec33	0.8864166
97	0x3f3f7a5b	0.74796075
98	0x3fa276e9	1.2692538
99	0x3f937cd6	1.1522472
100	0x3f2d51aa	0.67702734
101	0x3f6b0709	0.9180761
102	0x3fa45b5a	1.2840378
103	0x3f2b6628	0.66952753
104	0x3f8ffbd0	1.1248722
105	0x3f374fcc	0.71606135
106	0x3f529ed7	0.8227362
107	0x3f6c0f6b	0.92211026
108	0x3f5a2344	0.8521006
109	0x3f4ab34f	0.79179853
110	0x3f0e4d5b	0.55586785
111	0x3f5e9e4b	0.86960286
112	0x3f30ba86	0.6903461
113	0x3f6bb260	0.92069054
114	0x3f90ced6	1.1313121
115	0x3f2bafb1	0.6706496
116	0x3f64a06c	0.89307284
117	0x3f544da2	0.8293096
118	0x3f8cc492	1.0997488
119	0x3f2c2956	0.67250574
120	0x3f9cd294	1.2251763
121	0x3f9a61ba	1.2061074
122	0x3f907445	1.1285483
123	0x3f8c269e	1.0949285
124	0x3f46fa05	0.7772525
125	0x3f39ec06	0.7262577
126	0x3fa6fe29	1.3046314
127	0x3f65c3af	0.89751714

conv3.1.bias f4 [128]
0	0x3ec86250	0.39137506
1	0xbd44dc80	-0.048061848
2	0xbd877c8e	-0.06615554
3	0x3dde5b25	0.10857228
4	0x3d84f2bb	0.0649161
5	0x3b3e1f19	0.0029010235
6	0x3dd1493c	0.102190465
7	0xbcfc2f65	-0.030784318
8	0x3da624c5	0.08112482
9	0xbd35cd6c	-0.04438536
10	0x3e1bcdaf	0.15215181
11	0x3e37c364	0.1794563
12	0x3e862d4b	0.2620643
13	0xbd6b0b27	-0.057383683
14	0x3ea000cb	0.31250605
15	0x3b13fc60	0.0022580847
16	0xbc95b955	-0.01827685
17	0xbd9acfaf	-0.07559144
18	0x3c65c3b1	0.014023707
19	0x3e6bc97c	0.23026079
20	0x3dea9192	0.114535466
21	0x3ea58963	0.3233138
22	0x3e3a4e0d	0.18193837
23	0x3e8fa9c4	0.28059208
24	0xbb3d1f83	-0.0028857894
25	0x3e9d7a1f	0.30757234
26	0x3e9e578c	0.30926168
27	0x3d2aac6f	0.04166835
28	0x3e169c28	0.14708006
29	0x3dd2d0d3	0.10293736
30	0x3ed74f56	0.42052716
31	0x3e9d7e59	0.30760458
32	0x3db4aae8	0.0882166
33	0x3cf95809	0.030437486
34	0x3e465a10	0.19370294
35	0x3e05134e	0.12995645
36	0x3e5e0dff	0.21685027
37	0x3c96dfcc	0.018417262
38	0x3db01714	0.08598152
39	0xbc9976db	-0.018733433
40	0x3d73642c	0.059421703
41	0xbd770285	-0.060305137
42	0x3c313fb7	0.010818413
43	0x3e1f3197	0.15546261
44	0x3e946c3d	0.2898883
45	0x3ec6c1f9	0.38819864
46	0xbc78aea8	-0.01517836
47	0x3cc85220	0.024453223
48	0xbe585674	-0.21126729
49	0x3e4ec141	0.20190908
50	0xbdf57081	-0.11984349
51	0xbd5e214a	-0.054230966
52	0x3aaacb50	0.0013030563
53	0x3cad6780	0.021167517
54	0x3eb7912c	0.35852945
55	0x3cf70b3b	0.030156722
56	0x3cd978f6	0.026546936
57	0x3edad381	0.4273949
58	0x3e44abfd	0.19206233
59	0x3eb2a71a	0.34893113
60	0x3dfffce4	0.12499407
61	0x3d67b0e9	0.0565652
62	0x3e0e6d54	0.13908893
63	0xbdbdacd9	-0.09261484
64	0xbd9c4294	-0.07629886
65	0xbd22971e	-0.039694898
66	0xbdf5a328	-0.1199401
67	0x3b4fbce4	0.003169828
68	0x3eaee532	0.34159237
69	0x3e773328	0.24140608
70	0xbd89cadc	-0.067281455
71	0x3d9d9372	0.076941386
72	0x3dc33c41	0.09532977
73	0x3eccca08	0.39997888
74	0x3e4c40e0	0.19946623
75	0x3ec4e6fb	0.38457474
76	0x3c968be9	0.018377261
77	0x3e4a7e2c	0.19774693
78	0x3e43f85c	0.1913771
79	0xbd1e32cc	-0.038622662
80	0x3e3b3d24	0.18285042
81	0xbe1f80b2	-0.15576437
82	0x3d276095	0.040863592
83	0x3ea2863f	0.31743047
84	0xbd98a99f	-0.07454228
85	0x3dc8884b	0.09791621
86	0xbd099109	-0.033585582
87	0x3e820969	0.25397804
88	0xbd8e3c0a	-0.06945045
89	0xbd464d34	-0.04841347
90	0xbcd23d5d	-0.025664026
91	0xbdd369f5	-0.10322944
92	0xbd1c4ff2	-0.03816218
93	0xbc693963	-0.0142348735
94	0x3e88aed6	0.2669589
95	0x3d1190e1	0.035538558
96	0x3db63c06	0.08898167
97	0x3e175107	0.14777003
98	0xbdf05522	-0.11734988
99	0x3e388684	0.18020064
100	0xba7eaa3a	-0.0009714697
101	0x3e0030c7	0.12518607
102	0xbd274c26	-0.040844105
103	0x3d6009b0	0.05469674
104	0x3ec0b4dc	0.37637985
105	0x3d88d249	0.06680734
106	0x3e5d54c7	0.21614371
107	0xbd355dc0	-0.04427886
108	0x3e66204c	0.22473258
109	0x3edbac47	0.42904875
110	0x3d813ee6	0.06310825
111	0xbd0b2ca4	-0.03397812
112	0x3e8d4aff	0.2759628
113	0xbc8f5f91	-0.017501624
114	0xbc327fbc	-0.010894712
115	0xbd0f3d13	-0.034970354
116	0xbd75a695	-0.059973318
117	0x3e07532a	0.13215318
118	0x3d8837dc	0.06651279
119	0x3c9622a5	0.018327067
120	0xbd818d7b	-0.063258134
121	0x3ec54b7d	0.38534155
122	0x3e22b5bf	0.15889643
123	0x3ea3f823	0.3202525
124	0x3d381f87	0.04495194
125	0x3e5c0ad7	0.2148851
126	0xbdfbbb96	-0.122916386
127	0x3e39d002	0.18145755

conv3.1.running_mean f4 [128]
0	0xbefcd01a	-0.4937752
1	0x3ecd4ce5	0.40097728
2	0x3e4012f2	0.18757227
3	0xbdbe4a6d	-0.09291539
4	0x3c9ceea9	0.01915677
5	0xbf1df0c7	-0.6169552
6	0xbea3c3a2	-0.31985193
7	0xbdf79ea9	-0.12090809
8	0x3d831c10	0.06401837
9	0xbeb771f8	-0.3582914
10	0x3e01e1de	0.12683818
11	0x3de04e97	0.1095249
12	0x3de84de3	0.11342981
13	0xbe2eca3e	-0.17069337
14	0x3efc81f1	0.49317887
15	0xbe87b619	-0.26506117
16	0xbdfe2c82	-0.12410833
17	0x3ebdb2ff	0.37050626
18	0xbe74067f	-0.23830603
19	0xbede1cfa	-0.43381482
20	0x3e0c78db	0.13717978
21	0x3e1cde6c	0.15319222
22	0x3e664e39	0.22490777
23	0x3e5d321c	0.21601146
24	0x3e5ddd71	0.21666504
25	0xbe2bac23	-0.16764884
26	0x3d3b004d	0.045654584
27	0x3e290d0f	0.16508888
28	0xbd6d21f5	-0.057893712
29	0xbf5fc1ea	-0.87405264
30	0x3ea63d48	0.3246863
31	0xbda20066	-0.07910232
32	0x3d81b93f	0.06334161
33	0x3f2ef1cf	0.6833772
34	0x3ebcb2ae	0.36855072
35	0x3e20cee6	0.15703925
36	0xbe62df29	-0.22155441
37	0xbdc407f3	-0.09571829
38	0xbda7e461	-0.08197857
39	0x3f1ed40f	0.62042326
40	0x3e27e305	0.16395195
41	0x3e3c2810	0.18374658
42	0xbdbaebcd	-0.09127007
43	0x3e75ba9b	0.23996966
44	0x3e07740c	0.13227862
45	0x3eb0981c	0.3449105
46	0x3db3ce12	0.08779539
47	0x3e66ce3c	0.2253961
48	0x3e4a7b17	0.19773518
49	0x3bf78337	0.007553484
50	0x3eb19438	0.34683394
51	0x3e2d4a82	0.16922954
52	0x3e77e036	0.24206623
53	0x3e390a82	0.18070415
54	0x3f159f46	0.58446157
55	0x3eda184f	0.4259667
56	0x3e0b62d0	0.13611913
57	0xbe57e22d	-0.21082373
58	0x3db2cd54	0.087305695
59	0xbe8d1df1	-0.27561906
60	0x3eb32828	0.34991574
61	0x3d36929c	0.04457341
62	0x3d75e76e	0.06003516
63	0xbe948a2e	-0.29011673
64	0x3ef268a9	0.47345474
65	0x3ec3c589	0.38236645
66	0x3d9ac6c3	0.07557442
67	0x3ebb7265	0.36610714
68	0x3e42c192	0.19019154
69	0x3dd32035	0.103088774
70	0x3e986385	0.29763427
71	0x3eb1db29	0.34737518
72	0x3e1da610	0.15395379
73	0xbedb84a9	-0.4287465
74	0xbd41b3a6	-0.047290467
75	0x3c035ffe	0.008018492
76	0x3c213b4c	0.009840798
77	0x3e8c4803	0.2739869
78	0x3d90987a	0.070603326
79	0xbdac4fa5	-0.084136285
80	0x3e5bc30b	0.21461122
81	0xbc9cb573	-0.01912949
82	0x3eac0442	0.33596998
83	0xbb371313	-0.0027934953
84	0x3e923e0f	0.28562972
85	0x3e1f0e5c	0.15532821
86	0x3f0d453c	0.5518377
87	0x3f20939d	0.6272524
88	0x3eaa1f0e	0.33226818
89	0x3d65a706	0.05606749
90	0xbeae3880	-0.3402748
91	0xbe398ce3	-0.1812015
92	0x3f097b7f	0.53704065
93	0xbe9a2be0	-0.301116
94	0x3e7e5d48	0.24840271
95	0xbe3dbb86	-0.18528566
96	0x3ca64c9b	0.0203002
97	0x3c91ce7f	0.01779866
98	0x3ee216eb	0.4415811
99	0x3dd89d6c	0.10576901
100	0x3cf0599a	0.0293396
101	0xbe60901c	-0.21929973
102	0x3e5b0ad6	0.21390852
103	0xbdf31e33	-0.118709944
104	0x3dc8b491	0.09800065
105	0x3e9a3e73	0.3012577
106	0xbe24c2e9	-0.16089977
107	0x3dce7432	0.10080756
108	0x3f0152fa	0.5051724
109	0x3ea6582d	0.32489148
110	0x3e436b73	0.19083957
111	0x3ec81021	0.39074805
112	0x3e531072	0.20611742
113	0xbe8a9324	-0.27065384
114	0x3e2ead1d	0.17058225
115	0x3eb5f644	0.35539448
116	0x3e653bb8	0.22386062
117	0x3e14ed40	0.14543629
118	0x3d32c34b	0.043643277
119	0x3ecb0a31	0.39656213
120	0xbd0c7efc	-0.03430079
121	0x3dc0ea27	0.09419661
122	0x3e24ef56	0.16106924
123	0x3e040867	0.1289383
124	0x3bac946f	0.005266718
125	0x3ed0883a	0.40728933
126	0xbf14b93d	-0.5809515
127	0x3ed8bc84	0.42331326

conv3.1.running_var f4 [128]
0	0x3e839b72	0.25704533
1	0x3e3c7e77	0.18407618
2	0x3e4c30b6	0.19940457
3	0x3e4624c6	0.19349965
4	0x3e8e0bf5	0.27743497
5	0x3e5f5db6	0.21813092
6	0x3e53c8bf	0.20682047
7	0x3e538628	0.20656645
8	0x3e67e02c	0.22644109
9	0x3e5068be	0.20352456
10	0x3e465d4a	0.19371524
11	0x3e788fcd	0.24273606
12	0x3e777188	0.24164402
13	0x3e86e3f9	0.26345804
14	0x3e3e26ba	0.1856946
15	0x3e5e08b9	0.21683015
16	0x3e6014b3	0.21882896
17	0x3e368b25	0.17826517
18	0x3e624ca4	0.22099549
19	0x3e491629	0.1963736
20	0x3e5f5c4e	0.21812555
21	0x3e5f888a	0.2182943
22	0x3e4e65ae	0.20155975
23	0x3e6552b0	0.22394824
24	0x3e785136	0.2424973
25	0x3e6014f8	0.21882999
26	0x3e7f0003	0.24902348
27	0x3e632f78	0.22186077
28	0x3e530c8b	0.20610254
29	0x3e505635	0.20345385
30	0x3e70dcd0	0.23521733
31	0x3e955693	0.29167613
32	0x3e61da61	0.22055961
33	0x3e5ca984	0.2154904
34	0x3e840a46	0.25789088
35	0x3e4dc510	0.20094705
36	0x3e40084d	0.18753166
37	0x3e5871f6	0.21137223
38	0x3e6aaf7a	0.22918501
39	0x3ea0e7a9	0.31426743
40	0x3e619a7f	0.22031592
41	0x3eac66fb	0.33672318
42	0x3e6f58d4	0.23373729
43	0x3e5bdbf7	0.21470629
44	0x3e689703	0.22713856
45	0x3e8bc599	0.27299193
46	0x3e4772af	0.19477342
47	0x3e54d170	0.20783019
48	0x3e57d24d	0.21076317
49	0x3e766f6a	0.24065939
50	0x3e4d78cf	0.20065616
51	0x3e3bb6c8	0.18331444
52	0x3e5d46a9	0.21608986
53	0x3e535399	0.20637359
54	0x3e785119	0.24249686
55	0x3e4c0423	0.19923453
56	0x3e9aa49e	0.30203718
57	0x3e51914e	0.20465586
58	0x3e63b199	0.22235717
59	0x3e5ae973	0.21378116
60	0x3e6c9e65	0.23107298
61	0x3e72027b	0.23633759
62	0x3e64b1d4	0.22333461
63	0x3e37a8f4	0.17935544
64	0x3e8cf11d	0.27527705
65	0x3e6521e3	0.22376208
66	0x3e546ae2	0.20743898
67	0x3e6864bd	0.22694679
68	0x3e4c616d	0.1995904
69	0x3e5563eb	0.20838897
70	0x3e5906f4	0.21194059
71	0x3e4c0d2c	0.199269
72	0x3e7cf542	0.24702933
73	0x3e473a57	0.19455849
74	0x3e79134e	0.2432377
75	0x3e5d9e7a	0.21642485
76	0x3e746459	0.23866405
77	0x3e86362f	0.26213214
78	0x3e85fcd3	0.26169452
79	0x3e3f5a0f	0.18686698
80	0x3e593926	0.21213207
81	0x3e6e49db	0.23270361
82	0x3e7033a8	0.23457205
83	0x3e857aa8	0.26070142
84	0x3e8be869	0.27325752
85	0x3e5220b0	0.20520282
86	0x3e930147	0.28711912
87	0x3e8a8c3d	0.27060118
88	0x3e43b905	0.19113548
89	0x3e4aa830	0.19790721
90	0x3e7d5323	0.24738745
91	0x3e927280	0.28602982
92	0x3e51d9be	0.20493218
93	0x3e7f2400	0.24916077
94	0x3e7198e7	0.23593484
95	0x3e718ea6	0.23589572
96	0x3e689645	0.22713573
97	0x3e8273b8	0.2547891
98	0x3e832e8b	0.25621447
99	0x3e5a6c4b	0.21330373
100	0x3e6aa386	0.22913942
101	0x3e6c8170	0.23096251
102	0x3e3bb6a9	0.18331398
103	0x3e62e0c1	0.2215605
104	0x3e82acdc	0.25522506
105	0x3e8211a2	0.25404078
106	0x3e640ed3	0.2227128
107	0x3e52fb01	0.20603563
108	0x3e6b24c2	0.2296324
109	0x3e837ddc	0.2568196
110	0x3e6480df	0.22314785
111	0x3e6ff8a9	0.234347
112	0x3e4cc9d8	0.19998872
113	0x3e69735e	0.22797915
114	0x3e51ee60	0.20501089
115	0x3e69147f	0.22761725
116	0x3e7f3136	0.24921116
117	0x3e3b404e	0.18286249
118	0x3e5047ae	0.20339844
119	0x3e807a13	0.25093135
120	0x3e427b03	0.18992238
121	0x3e4fb35a	0.20283261
122	0x3e6dd62b	0.2322623
123	0x3e497aed	0.19675799
124	0x3e7a27b4	0.24429208
125	0x3e73b18c	0.23798198
126	0x3e517b03	0.20457081
127	0x3e868438	0.2627275

fc.weight f4 [1, 2048]
0	0xbe27155c	-0.16316742
1	0x3ee08a11	0.43855336
2	0x3eb1f791	0.3475919
3	0x3ccb3cf6	0.024809342
4	0xbce31f3f	-0.02772486
5	0x3dc82042	0.09771778
6	0xbe4c19d2	-0.19931725
7	0xbe543a09	-0.20725264
8	0x3eda13f8	0.4259336
9	0x3d367d41	0.044553045
10	0x3f9fdbf4	1.2488999
11	0xbe52999c	-0.2056641
12	0xbdb74c13	-0.08950057
13	0x3f62c16f	0.88576406
14	0x3f988044	1.1914144
15	0xbe56eb76	-0.20988259
16	0x3ec47b3e	0.38375276
17	0xbe6973be	-0.22798058
18	0xbda0a94e	-0.07844792
19	0x3ed91019	0.42395094
20	0x3e9666a1	0.29375175
21	0xbe14690b	-0.14493196
22	0x3e8e34c2	0.27774626
23	0xbea345de	-0.31889242
24	0x3e1877b1	0.14889409
25	0xbeba4920	-0.36383915
26	0x3f476a08	0.77896166
27	0xbea3b123	-0.31971082
28	0xbe12bd82	-0.14330104
29	0xbe83de55	-0.25755563
30	0xbddfc8e9	-0.109269924
31	0xbeb839f7	-0.35981724
32	0x3e6009f8	0.21878803
33	0xbe9e03c0	-0.30862236
34	0xbec74d33	-0.38926086
35	0xbeb5b07b	-0.35486206
36	0xbe5b3b76	-0.21409401
37	0xbec67a97	-0.38765404
38	0x3e3a039a	0.18165436
39	0xbe18efdb	-0.14935248
40	0xbeacbfdc	-0.33740127
41	0x3e9ada0d	0.30244485
42	0xbecda856	-0.40167493
43	0x3e9126d3	0.28349933
44	0x3f042a15	0.5162671
45	0xbea15537	-0.31510326
46	0xbeef764f	-0.4676995
47	0x3e8c5104	0.2740556
48	0x3e2b7470	0.16743636
49	0xbdfa51f2	-0.12222661
50	0xbb0fe70e	-0.0021957788
51	0x3ec8f2ff	0.3924789
52	0x3e6e33e4	0.23261982
53	0x3e65c1fe	0.22437283
54	0x3e7969a3	0.24356703
55	0xbedc1cdf	-0.42990777
56	0xbdfeafb3	-0.12435856
57	0xbed1871b	-0.4092339
58	0x3e3ba577	0.18324839
59	0xbef056d8	-0.46941257
60	0xbf02039c	-0.5078676
61	0x3e9bdd08	0.3044207
62	0x3e932fe5	0.28747478
63	0xbe825e7c	-0.2546271
64	0x3e8825f0	0.26591444
65	0x3e7117e4	0.2354427
66	0x3e4ccced	0.20000048
67	0x3e4f0b1a	0.20219079
68	0xbe681b1f	-0.22666596
69	0xbdbafc84	-0.09130195
70	0xbe0fd167	-0.14044724
71	0xbdd10daf	-0.10207688
72	0xbdf482c5	-0.11939005
73	0xbe982c26	-0.29721183
74	0xbea5ffd8	-0.32421756
75	0xbe72f517	-0.23726307
76	0xbed6cdfb	-0.41954026
77	0xbd071941	-0.03298307
78	0xbe97b73e	-0.2963199
79	0xbeae070f	-0.3398976
80	0x3d61f88b	0.05516867
81	0xbe55954d	-0.20857735
82	0xbebb1657	-0.3654048
83	0xbec5a826	-0.3860485
84	0x3d416a15	0.04722031
85	0x3e38ca72	0.18045977
86	0x3de33081	0.11093236
87	0x3e73961a	0.23787728
88	0xbe83d2e8	-0.25746846
89	0xbe8632cb	-0.26210627
90	0xbdd07acc	-0.10179672
91	0x3e5d5533	0.21614532
92	0x3e10091f	0.1406598
93	0xbeaf8702	-0.3428269
94	0xbe91dcd5	-0.28488794
95	0x3ebc7d57	0.36814377
96	0x3e1138cf	0.14181827
97	0x3dfcabd7	0.12337463
98	0x3e1a8c0b	0.15092485
99	0xbdc82c7a	-0.09774108
100	0x3da045b0	0.07825792
101	0xbf049490	-0.5178919
102	0xbf08596b	-0.5326144
103	0x3e1d8734	0.15383607
104	0x3e81475a	0.2524975
105	0xbf06b72f	-0.52623266
106	0xbef6b76b	-0.48186812
107	0x3e68a76c	0.22720116
108	0xbea61d8f	-0.32444426
109	0xbf1bf783	-0.6092455
110	0xbeb53190	-0.35389376
111	0xbf1be6d6	-0.608991
112	0x3e2774f9	0.16353215
113	0xbd62e885	-0.05539753
114	0xbe5f2922	-0.21793035
115	0x3ea29df8	0.31761146
116	0xbb81121c	-0.0039389264
117	0x3ed08c73	0.40732154
118	0x3eb9e7cc	0.3630966
119	0xbec1839d	-0.37795725
120	0xbd3dba85	-0.046320457
121	0x3e15639a	0.14588776
122	0x3cdc1e6a	0.026869971
123	0xbebdf1d9	-0.37098578
124	0xbe009363	-0.12556224
125	0x3ecf7453	0.40518436
126	0xbefe2dd2	-0.49644333
127	0x3e6aa7ac	0.22915524
128	0x3e751848	0.23935044
129	0x3e8399c5	0.25703254
130	0x3d69694c	0.056985185
131	0xbecf3faf	-0.40478274
132	0x3e3bc227	0.18335782
133	0x3c9da170	0.019242018
134	0x3c8d0ead	0.017218912
135	0x3e085bde	0.13316295
136	0x3e0101c5	0.12598331
137	0xbec56329	-0.38552216
138	0xbea80cdd	-0.32822314
139	0x3e4b4d04	0.19853598
140	0x3e8144b6	0.25247735
141	0xbe3e85f1	-0.18605782
142	0xbe9b32fc	-0.30312335
143	0x3e62ffdc	0.22167915
144	0xbeb9599c	-0.3620118
145	0x3ece18fb	0.40253434
146	0xbd1af201	-0.03782845
147	0x3ef08121	0.46973518
148	0xbdc3051f	-0.09522461
149	0xbe3e72ac	-0.18598431
150	0xbe6922dd	-0.22767206
151	0xbea7c94c	-0.32770765
152	0xbe3dd2e3	-0.18537478
153	0xbd3a1fa2	-0.045440324
154	0xbe349906	-0.17636499
155	0xbdeb4f5b	-0.11489745
156	0x3eb5139c	0.35366523
157	0x3e2f1735	0.17098697
158	0x3eb88b34	0.36043704
159	0x3ebe81fd	0.37208548
160	0x3f0ee83d	0.5582312
161	0xbdd6b4e8	-0.10483724
162	0xbd8c29bf	-0.068439
163	0x3ef724b2	0.48270184
164	0x3ddfeb48	0.10933548
165	0x3d69ba66	0.05706253
166	0xbe09f992	-0.1347411
167	0x3eb62aba	0.35579473
168	0xbdb19bc6	-0.086722896
169	0x3f13bd93	0.5771114
170	0xbd714039	-0.058899138
171	0xbc87c5eb	-0.016573867
172	0x3f15c249	0.5849958
173	0xbe447528	-0.19185317
174	0x3f32ccc9	0.6984373
175	0xbe2fd797	-0.17172085
176	0xbec40c82	-0.38290793
177	0xbe8093d5	-0.25112787
178	0xbdde32a3	-0.10849502
179	0xbe4857b7	-0.1956471
180	0x3d9f1fa2	0.07769705
181	0xbe2ff723	-0.17184119
182	0x3e0d319e	0.13788459
183	0xbf0917da	-0.5355202
184	0x3e2cdf61	0.16882087
185	0xbf13dacf	-0.5775575
186	0xbeb2fabc	-0.3495692
187	0xbeebb22b	-0.4603437
188	0x3e80b284	0.25136197
189	0x3e713a2d	0.23557349
190	0x3e35f468	0.17769015
191	0x3e3ed902	0.1863747
192	0x3eb88838	0.36041427
193	0x3f41b61a	0.7566849
194	0x3cdebf8b	0.027190944
195	0xbe902a12	-0.28157097
196	0x3f00eea3	0.5036413
197	0xbd4ddfb9	-0.050262187
198	0xbda8b716	-0.08238046
199	0xbe2f5a41	-0.17124273
200	0x3e919862	0.2843657
201	0x3f651e9a	0.8949982
202	0x3d899438	0.067177236
203	0xbdd7d04b	-0.105377756
204	0x3ece5cdd	0.40305224
205	0x3d297d82	0.04137946
206	0x3f9b125f	1.2114981
207	0xbe4d577e	-0.20052907
208	0xbe8a6f0e	-0.27037853
209	0xbd7d0456	-0.061771713
210	0xbc689ab6	-0.014197042
211	0x3e74876d	0.23879786
212	0xbe521b89	-0.20518316
213	0xbe4397a7	-0.1910082
214	0xbe782391	-0.24232318
215	0x3e5b9d32	0.21446684
216	0x3db24184	0.08703902
217	0x3e8e8300	0.2783432
218	0x3e12a013	0.14318876
219	0x3e8238d9	0.25433996
220	0xbec7fb0c	-0.3905872
221	0xbea987b8	-0.33111358
222	0xbe9944cf	-0.2993531
223	0xbef45b48	-0.47725892
224	0x3f576a3f	0.84146494
225	0x3effe389	0.49978283
226	0x3f3c5fc1	0.7358361
227	0x3f704f68	0.93871164
228	0xbe580094	-0.2109397
229	0x3dc93c1a	0.098259166
230	0x3e691c7f	0.22764777
231	0x3f1315ad	0.5745495
232	0x3e0f0c87	0.13969623
233	0xbd646617	-0.055761423
234	0xbd0d29e6	-0.034463786
235	0x3f36d945	0.71425277
236	0xbe70079f	-0.23440407
237	0xbe16baef	-0.14719747
238	0xbd9a8a11	-0.07545865
239	0xbe90fc84	-0.28317654
240	0xbeaf04fd	-0.34183493
241	0x3eb91082	0.36145407
242	0xbe303bbb	-0.17210285
243	0x3ee2a21c	0.44264305
244	0xbe5c843f	-0.21534823
245	0xbde500a0	-0.1118176
246	0x3eefe0f4	0.46851313
247	0x3d89cd40	0.067286015
248	0xbe9f42d2	-0.31105667
249	0x3cc82a99	0.024434375
250	0xbeb1b796	-0.34710377
251	0x3e548b87	0.2075635
252	0xbec71e3b	-0.38890252
253	0x3e3b50e4	0.18292576
254	0xbe206fc0	-0.15667629
255	0x3ec8c9bd	0.39216414
